…
minimum loss = 1.7937246561050415
test accuracy = 97.56736660003662%
learnrate = 0.0003
test loss :2.432633399963379
512-512-512-512-512-1

minimum loss = 1.6071181297302246
test accuracy = 97.64195394515991%
learnrate = 0.00025443
test loss :2.358046054840088
1024-512-512-512-512-1

Model: "sequential"
┏━━━━━━━━━━━━━━━━━━━━━━━━━━━━━━━━━━━━━━┳━━━━━━━━━━━━━━━━━━━━━━━━━━━━━┳━━━━━━━━━━━━━━━━━┓
┃ Layer (type)                         ┃ Output Shape                ┃         Param # ┃
┡━━━━━━━━━━━━━━━━━━━━━━━━━━━━━━━━━━━━━━╇━━━━━━━━━━━━━━━━━━━━━━━━━━━━━╇━━━━━━━━━━━━━━━━━┩
│ dense (Dense)                        │ (None, 1024)                │       1,029,120 │
├──────────────────────────────────────┼─────────────────────────────┼─────────────────┤
│ dropout (Dropout)                    │ (None, 1024)                │               0 │
├──────────────────────────────────────┼─────────────────────────────┼─────────────────┤
│ dense_1 (Dense)                      │ (None, 1024)                │       1,049,600 │
├──────────────────────────────────────┼─────────────────────────────┼─────────────────┤
│ dropout_1 (Dropout)                  │ (None, 1024)                │               0 │
├──────────────────────────────────────┼─────────────────────────────┼─────────────────┤
│ dense_2 (Dense)                      │ (None, 512)                 │         524,800 │
├──────────────────────────────────────┼─────────────────────────────┼─────────────────┤
│ dropout_2 (Dropout)                  │ (None, 512)                 │               0 │
├──────────────────────────────────────┼─────────────────────────────┼─────────────────┤
│ dense_3 (Dense)                      │ (None, 512)                 │         262,656 │
├──────────────────────────────────────┼─────────────────────────────┼─────────────────┤
│ dropout_3 (Dropout)                  │ (None, 512)                 │               0 │
├──────────────────────────────────────┼─────────────────────────────┼─────────────────┤
│ dense_4 (Dense)                      │ (None, 512)                 │         262,656 │
├──────────────────────────────────────┼─────────────────────────────┼─────────────────┤
│ dropout_4 (Dropout)                  │ (None, 512)                 │               0 │
├──────────────────────────────────────┼─────────────────────────────┼─────────────────┤
│ dense_5 (Dense)                      │ (None, 1)                   │             513 │
└──────────────────────────────────────┴─────────────────────────────┴─────────────────┘
 Total params: 9,388,037 (35.81 MB)
 Trainable params: 3,129,345 (11.94 MB)
 Non-trainable params: 0 (0.00 B)
 Optimizer params: 6,258,692 (23.88 MB)
None
minimum loss = 1.4304375648498535
test accuracy = 97.87052917480469%
learnrate = 0.00025443
test loss :2.1294708251953125'

minimum loss = 0.7295648455619812
…
